Arduino IDE/Arduino_INT8_split_copy_20230929074223/int8_split_conv_model_maxpool_3.tflite (tflite, 21808 bytes, 6 tensors)

sequential_2/dense_8/MatMul i1 [6, 16] scale=0.009076479 zero_point=0
0	0x0d	0.11799423
1	0xe4	-0.25414142
2	0x09	0.08168831
3	0x15	0.19060606
4	0x11	0.15430014
5	0xbd	-0.6081241
6	0x01	0.009076479
7	0x27	0.3539827
8	0x2b	0.3902886
9	0xd1	-0.4265945
10	0xff	-0.009076479
11	0xd3	-0.40844154
12	0x00	0.0
13	0x19	0.22691198
14	0x57	0.78965366
15	0xff	-0.009076479
16	0x1b	0.24506493
17	0x28	0.36305916
18	0xff	-0.009076479
19	0xf6	-0.09076479
20	0x26	0.3449062
21	0x07	0.063535355
22	0xff	-0.009076479
23	0x03	0.027229436
24	0xeb	-0.19060606
25	0xdb	-0.3358297
26	0x37	0.49920633
27	0xcd	-0.46290043
28	0xff	-0.009076479
29	0x18	0.21783549
30	0xd4	-0.39936507
31	0x01	0.009076479
32	0xef	-0.15430014
33	0x2e	0.41751802
34	0x2b	0.3902886
35	0xd9	-0.3539827
36	0xd2	-0.41751802
37	0xd7	-0.37213564
38	0x07	0.063535355
39	0xb6	-0.6716594
40	0x39	0.5173593
41	0xf4	-0.10891774
42	0x3c	0.54458874
43	0x25	0.3358297
44	0xa2	-0.853189
45	0xe6	-0.23598845
46	0x2e	0.41751802
47	0x05	0.045382395
48	0x1a	0.23598845
49	0x21	0.2995238
50	0x2d	0.40844154
51	0x09	0.08168831
52	0x00	0.0
53	0x36	0.49012986
54	0x1d	0.2632179
55	0x0a	0.09076479
56	0x24	0.32675323
57	0xd9	-0.3539827
58	0xfd	-0.027229436
59	0xee	-0.16337661
60	0x01	0.009076479
61	0xb2	-0.7079654
62	0x1d	0.2632179
63	0xd1	-0.4265945
64	0x04	0.036305916
65	0xeb	-0.19060606
66	0x12	0.16337661
67	0xe8	-0.21783549
68	0xf8	-0.07261183
69	0xf9	-0.063535355
70	0x13	0.1724531
71	0xff	-0.009076479
72	0xf1	-0.13614719
73	0x5c	0.83503604
74	0x20	0.29044732
75	0xaf	-0.7351948
76	0x00	0.0
77	0xf4	-0.10891774
78	0x1b	0.24506493
79	0xdf	-0.2995238
80	0xd3	-0.40844154
81	0x36	0.49012986
82	0xe5	-0.24506493
83	0x35	0.48105338
84	0x1b	0.24506493
85	0xdf	-0.2995238
86	0x7f	1.1527128
87	0xcc	-0.4719769
88	0xfa	-0.05445887
89	0x18	0.21783549
90	0xdd	-0.31767675
91	0xeb	-0.19060606
92	0x08	0.07261183
93	0x10	0.14522366
94	0xff	-0.009076479
95	0x2e	0.41751802

sequential_2/dense_7/MatMul i1 [16, 32] scale=0.0067209476 zero_point=0
0	0x17	0.1545818
1	0x16	0.14786084
2	0xfc	-0.02688379
3	0x1a	0.17474464
4	0x2c	0.29572168
5	0xeb	-0.1411399
6	0x09	0.06048853
7	0x04	0.02688379
8	0xd4	-0.29572168
9	0xda	-0.255396
10	0x2f	0.31588453
11	0xd9	-0.26211697
12	0x0a	0.067209475
13	0xfc	-0.02688379
14	0x07	0.04704663
15	0xec	-0.13441895
16	0xfb	-0.033604737
17	0xd5	-0.28900075
18	0x31	0.32932642
19	0x0f	0.100814216
20	0x09	0.06048853
21	0x31	0.32932642
22	0xea	-0.14786084
23	0x3c	0.40325686
24	0x1c	0.18818653
25	0xe4	-0.18818653
26	0xde	-0.22851221
27	0xd9	-0.26211697
28	0xfc	-0.02688379
29	0xfa	-0.040325686
30	0xf2	-0.09409326
31	0x49	0.49062917
32	0x2b	0.28900075
33	0xeb	-0.1411399
34	0xfe	-0.013441895
35	0x46	0.47046632
36	0x51	0.54439676
37	0xec	-0.13441895
38	0x07	0.04704663
39	0x1f	0.20834938
40	0xf3	-0.08737232
41	0x00	0.0
42	0x24	0.24195412
43	0xda	-0.255396
44	0xe9	-0.1545818
45	0xf7	-0.06048853
46	0xe5	-0.18146558
47	0xf1	-0.100814216
48	0x23	0.23523316
49	0x13	0.127698
50	0xe6	-0.17474464
51	0x1f	0.20834938
52	0x32	0.33604738
53	0x1d	0.19490749
54	0xdc	-0.24195412
55	0x44	0.45702443
56	0xe5	-0.18146558
57	0x04	0.02688379
58	0x03	0.020162843
59	0x05	0.033604737
60	0xee	-0.12097706
61	0x1b	0.18146558
62	0xff	-0.0067209476
63	0xcd	-0.3427683
64	0xf8	-0.05376758
65	0x25	0.24867506
66	0xe1	-0.20834938
67	0xe2	-0.20162843
68	0x25	0.24867506
69	0xdf	-0.22179127
70	0xd2	-0.3091636
71	0xe6	-0.17474464
72	0x11	0.11425611
73	0x14	0.13441895
74	0xd4	-0.29572168
75	0x0a	0.067209475
76	0xf5	-0.07393042
77	0xef	-0.11425611
78	0xde	-0.22851221
79	0xf2	-0.09409326
80	0x27	0.26211697
81	0x17	0.1545818
82	0xd1	-0.31588453
83	0xe8	-0.16130275
84	0xfb	-0.033604737
85	0xf2	-0.09409326
86	0x2b	0.28900075
87	0xf2	-0.09409326
88	0xf5	-0.07393042
89	0xfc	-0.02688379
90	0x18	0.16130275
91	0x27	0.26211697
92	0x29	0.27555886
93	0xdc	-0.24195412
94	0xcd	-0.3427683
95	0x32	0.33604738
96	0xdf	-0.22179127
97	0x1f	0.20834938
98	0x0a	0.067209475
99	0x35	0.35621023
100	0x31	0.32932642
101	0xe0	-0.21507032
102	0xfb	-0.033604737
103	0x2a	0.2822798
104	0xd6	-0.2822798
105	0x1e	0.20162843
106	0x13	0.127698
107	0xd0	-0.3226055
108	0xe2	-0.20162843
109	0x04	0.02688379
110	0x0b	0.07393042
111	0x07	0.04704663
112	0x15	0.1411399
113	0xda	-0.255396
114	0x2b	0.28900075
115	0x0e	0.09409326
116	0x20	0.21507032
117	0xf6	-0.067209475
118	0x1f	0.20834938
119	0xeb	-0.1411399
120	0x2b	0.28900075
121	0x36	0.36293116
122	0x0d	0.08737232
123	0x0c	0.08065137
124	0xe3	-0.19490749
125	0xd3	-0.30244264
126	0x1b	0.18146558
127	0xd6	-0.2822798
128	0xd0	-0.3226055
129	0x30	0.3226055
130	0xde	-0.22851221
131	0x03	0.020162843
132	0x1d	0.19490749
133	0x0e	0.09409326
134	0x00	0.0
135	0x03	0.020162843
136	0x20	0.21507032
137	0x2e	0.3091636
138	0x13	0.127698
139	0xcb	-0.35621023
140	0xfb	-0.033604737
141	0x21	0.22179127
142	0xe5	-0.18146558
143	0xf1	-0.100814216
144	0xf3	-0.08737232
145	0x1b	0.18146558
146	0xe1	-0.20834938
147	0x15	0.1411399
148	0x18	0.16130275
149	0x09	0.06048853
150	0x52	0.5511177
151	0x00	0.0
152	0xe6	-0.17474464
153	0xff	-0.0067209476
154	0x0e	0.09409326
155	0xe7	-0.16802369
156	0x19	0.16802369
157	0xd2	-0.3091636
158	0x15	0.1411399
159	0xe1	-0.20834938
160	0x29	0.27555886
161	0x14	0.13441895
162	0xea	-0.14786084
163	0xdc	-0.24195412
164	0x1c	0.18818653
165	0xcf	-0.32932642
166	0xef	-0.11425611
167	0xf8	-0.05376758
168	0x19	0.16802369
169	0xf2	-0.09409326
170	0x06	0.040325686
171	0x0a	0.067209475
172	0x22	0.22851221
173	0xb5	-0.50407106
174	0x1d	0.19490749
175	0xfe	-0.013441895
176	0x2b	0.28900075
177	0x2f	0.31588453
178	0xd5	-0.28900075
179	0xdf	-0.22179127
180	0x31	0.32932642
181	0x43	0.4503035
182	0x3f	0.42341968
183	0xe5	-0.18146558
184	0x44	0.45702443
185	0xf3	-0.08737232
186	0x2f	0.31588453
187	0x14	0.13441895
188	0xef	-0.11425611
189	0xce	-0.33604738
190	0x1d	0.19490749
191	0x24	0.24195412
192	0x09	0.06048853
193	0x12	0.12097706
194	0xca	-0.36293116
195	0xc8	-0.37637305
196	0x0a	0.067209475
197	0xa3	-0.6250481
198	0x11	0.11425611
199	0x1f	0.20834938
200	0x00	0.0
201	0x3a	0.38981497
202	0xea	-0.14786084
203	0x14	0.13441895
204	0xe3	-0.19490749
205	0x2d	0.30244264
206	0x04	0.02688379
207	0x08	0.05376758
208	0xe9	-0.1545818
209	0xf5	-0.07393042
210	0x0f	0.100814216
211	0xd7	-0.27555886
212	0x3d	0.4099778
213	0x2e	0.3091636
214	0x01	0.0067209476
215	0x0a	0.067209475
216	0xdb	-0.24867506
217	0x29	0.27555886
218	0x5b	0.61160624
219	0x05	0.033604737
220	0x26	0.255396
221	0xff	-0.0067209476
222	0x00	0.0
223	0x27	0.26211697
224	0xa7	-0.5981643
225	0x52	0.5511177
226	0x10	0.10753516
227	0x33	0.3427683
228	0x23	0.23523316
229	0x05	0.033604737
230	0xf6	-0.067209475
231	0xca	-0.36293116
232	0x04	0.02688379
233	0x37	0.36965212
234	0xf5	-0.07393042
235	0x14	0.13441895
236	0x26	0.255396
237	0xc0	-0.43014064
238	0x33	0.3427683
239	0x1a	0.17474464
240	0xf4	-0.08065137
241	0x21	0.22179127
242	0xd0	-0.3226055
243	0xf5	-0.07393042
244	0xf1	-0.100814216
245	0x0b	0.07393042
246	0x45	0.4637454
247	0xdc	-0.24195412
248	0x1e	0.20162843
249	0x2c	0.29572168
250	0xf3	-0.08737232
251	0x25	0.24867506
252	0x07	0.04704663
253	0xcb	-0.35621023
254	0xe4	-0.18818653
255	0x36	0.36293116

sequential_2/dense_6/MatMul i1 [32, 256] scale=0.0035811656 zero_point=0
0	0xf5	-0.03939282
1	0xe8	-0.085947976
2	0x07	0.025068158
3	0x04	0.014324662
4	0xed	-0.068042144
5	0x32	0.17905828
6	0x24	0.12892196
7	0xdd	-0.12534079
8	0xf6	-0.035811655
9	0xf5	-0.03939282
10	0xfe	-0.007162331
11	0xec	-0.07162331
12	0xb5	-0.2685874
13	0x27	0.13966545
14	0xe1	-0.11101613
15	0xfc	-0.014324662
16	0xe4	-0.10027263
17	0x37	0.1969641
18	0x11	0.060879815
19	0x02	0.007162331
20	0xfa	-0.021486994
21	0x1d	0.1038538
22	0x1f	0.11101613
23	0xe5	-0.09669147
24	0x05	0.017905828
25	0x1b	0.09669147
26	0x22	0.12175963
27	0x19	0.08952914
28	0xfb	-0.017905828
29	0x1c	0.10027263
30	0x1f	0.11101613
31	0x16	0.07878564
32	0xa2	-0.33662957
33	0x41	0.23277576
34	0x15	0.07520448
35	0xfd	-0.010743497
36	0x15	0.07520448
37	0x04	0.014324662
38	0x14	0.07162331
39	0xc7	-0.20412643
40	0x09	0.03223049
41	0x06	0.021486994
42	0x1c	0.10027263
43	0xd5	-0.15399012
44	0xf7	-0.03223049
45	0x3b	0.21128877
46	0xd6	-0.15040895
47	0x03	0.010743497
48	0x00	0.0
49	0xfb	-0.017905828
50	0x13	0.068042144
51	0xeb	-0.07520448
52	0xf0	-0.05729865
53	0x1b	0.09669147
54	0xdf	-0.118178464
55	0xe3	-0.1038538
56	0x19	0.08952914
57	0x20	0.1145973
58	0x0f	0.053717483
59	0x33	0.18263945
60	0xf0	-0.05729865
61	0x2a	0.15040895
62	0x14	0.07162331
63	0xfa	-0.021486994
64	0xef	-0.060879815
65	0xcc	-0.18622062
66	0x13	0.068042144
67	0x06	0.021486994
68	0xdd	-0.12534079
69	0xf9	-0.025068158
70	0xff	-0.0035811656
71	0x04	0.014324662
72	0x0d	0.046555154
73	0x08	0.028649325
74	0x2d	0.16115245
75	0x0f	0.053717483
76	0xeb	-0.07520448
77	0xff	-0.0035811656
78	0x16	0.07878564
79	0xfa	-0.021486994
80	0xe9	-0.08236681
81	0x0a	0.035811655
82	0x08	0.028649325
83	0x10	0.05729865
84	0xfb	-0.017905828
85	0xc0	-0.2291946
86	0xea	-0.07878564
87	0xe6	-0.09311031
88	0xf4	-0.042973988
89	0xf2	-0.050136317
90	0xef	-0.060879815
91	0xeb	-0.07520448
92	0xef	-0.060879815
93	0xf7	-0.03223049
94	0xed	-0.068042144
95	0x04	0.014324662
96	0xe1	-0.11101613
97	0xe7	-0.08952914
98	0x24	0.12892196
99	0x18	0.085947976
100	0xee	-0.06446098
101	0x14	0.07162331
102	0xee	-0.06446098
103	0x30	0.17189595
104	0xfc	-0.014324662
105	0x06	0.021486994
106	0x1e	0.107434966
107	0xfb	-0.017905828
108	0x2d	0.16115245
109	0x14	0.07162331
110	0x00	0.0
111	0x0a	0.035811655
112	0xe5	-0.09669147
113	0x0f	0.053717483
114	0x03	0.010743497
115	0x04	0.014324662
116	0x13	0.068042144
117	0xf4	-0.042973988
118	0x05	0.017905828
119	0xfd	-0.010743497
120	0x08	0.028649325
121	0xfd	-0.010743497
122	0x0e	0.050136317
123	0xe7	-0.08952914
124	0x17	0.08236681
125	0x18	0.085947976
126	0xf8	-0.028649325
127	0xfa	-0.021486994
128	0xce	-0.17905828
129	0xc9	-0.1969641
130	0xc8	-0.20054527
131	0x04	0.014324662
132	0x29	0.14682779
133	0xd0	-0.17189595
134	0xc9	-0.1969641
135	0xf9	-0.025068158
136	0xb1	-0.28291208
137	0xe7	-0.08952914
138	0xfe	-0.007162331
139	0xd9	-0.13966545
140	0xf6	-0.035811655
141	0x08	0.028649325
142	0x3e	0.22203226
143	0x04	0.014324662
144	0xf6	-0.035811655
145	0xfc	-0.014324662
146	0xe4	-0.10027263
147	0xf8	-0.028649325
148	0xfb	-0.017905828
149	0x98	-0.37244123
150	0x1b	0.09669147
151	0xf2	-0.050136317
152	0x1a	0.09311031
153	0xbb	-0.24710043
154	0xe3	-0.1038538
155	0xe2	-0.107434966
156	0xef	-0.060879815
157	0x15	0.07520448
158	0x19	0.08952914
159	0xf4	-0.042973988
160	0xe4	-0.10027263
161	0xff	-0.0035811656
162	0x18	0.085947976
163	0x03	0.010743497
164	0x13	0.068042144
165	0xfa	-0.021486994
166	0xf3	-0.046555154
167	0x08	0.028649325
168	0xa6	-0.3223049
169	0x11	0.060879815
170	0xe6	-0.09311031
171	0xd3	-0.16115245
172	0x22	0.12175963
173	0xdd	-0.12534079
174	0x38	0.20054527
175	0xe4	-0.10027263
176	0xd8	-0.14324662
177	0x1c	0.10027263
178	0x10	0.05729865
179	0x2a	0.15040895
180	0xd2	-0.16473362
181	0x24	0.12892196
182	0x0c	0.042973988
183	0x00	0.0
184	0x15	0.07520448
185	0xe1	-0.11101613
186	0xf2	-0.050136317
187	0xe8	-0.085947976
188	0xff	-0.0035811656
189	0x10	0.05729865
190	0x0e	0.050136317
191	0x03	0.010743497
192	0xba	-0.25068158
193	0x17	0.08236681
194	0xec	-0.07162331
195	0x14	0.07162331
196	0x19	0.08952914
197	0x01	0.0035811656
198	0x14	0.07162331
199	0xe1	-0.11101613
200	0xdd	-0.12534079
201	0xf2	-0.050136317
202	0xe2	-0.107434966
203	0xf1	-0.053717483
204	0xe4	-0.10027263
205	0xf2	-0.050136317
206	0x00	0.0
207	0xee	-0.06446098
208	0x05	0.017905828
209	0xfd	-0.010743497
210	0x1c	0.10027263
211	0xe6	-0.09311031
212	0x08	0.028649325
213	0xfd	-0.010743497
214	0xfd	-0.010743497
215	0x22	0.12175963
216	0x06	0.021486994
217	0x08	0.028649325
218	0xfd	-0.010743497
219	0x0d	0.046555154
220	0x11	0.060879815
221	0xf1	-0.053717483
222	0xd6	-0.15040895
223	0x17	0.08236681
224	0xd8	-0.14324662
225	0x29	0.14682779
226	0x13	0.068042144
227	0x2d	0.16115245
228	0xe4	-0.10027263
229	0x0f	0.053717483
230	0x24	0.12892196
231	0x02	0.007162331
232	0xc2	-0.22203226
233	0x03	0.010743497
234	0x0b	0.03939282
235	0x0f	0.053717483
236	0xdf	-0.118178464
237	0x16	0.07878564
238	0x11	0.060879815
239	0x0e	0.050136317
240	0x05	0.017905828
241	0x27	0.13966545
242	0x00	0.0
243	0x09	0.03223049
244	0xe6	-0.09311031
245	0xe8	-0.085947976
246	0xee	-0.06446098
247	0x10	0.05729865
248	0xfa	-0.021486994
249	0xd8	-0.14324662
250	0x3d	0.2184511
251	0xe5	-0.09669147
252	0xe5	-0.09669147
253	0xf3	-0.046555154
254	0xd6	-0.15040895
255	0x14	0.07162331

sequential_2/conv2d_8/Conv2D i1 [32, 3, 3, 16]
0	0x00	0
1	0xf7	-9
2	0x17	23
3	0xdf	-33
4	0xe5	-27
5	0x37	55
6	0x0d	13
7	0x7f	127
8	0x06	6
9	0x11	17
10	0xf9	-7
11	0xe9	-23
12	0xe8	-24
13	0x0c	12
14	0x18	24
15	0xff	-1
16	0x03	3
17	0x01	1
18	0x05	5
19	0xda	-38
20	0xfe	-2
21	0x24	36
22	0xf7	-9
23	0x11	17
24	0x27	39
25	0x0a	10
26	0xfe	-2
27	0x0a	10
28	0xf5	-11
29	0x18	24
30	0xf2	-14
31	0xf4	-12
32	0xff	-1
33	0x22	34
34	0x1b	27
35	0xfc	-4
36	0x18	24
37	0xf8	-8
38	0x13	19
39	0xf8	-8
40	0x01	1
41	0xd2	-46
42	0xf8	-8
43	0xef	-17
44	0xf0	-16
45	0xef	-17
46	0xfe	-2
47	0x04	4
48	0x01	1
49	0xdd	-35
50	0x15	21
51	0xcb	-53
52	0xff	-1
53	0xe5	-27
54	0x02	2
55	0x55	85
56	0x07	7
57	0x26	38
58	0xf6	-10
59	0x05	5
60	0xf9	-7
61	0x10	16
62	0xf0	-16
63	0xf4	-12
64	0xfd	-3
65	0x0f	15
66	0x09	9
67	0xdd	-35
68	0x2f	47
69	0x03	3
70	0xfd	-3
71	0xfd	-3
72	0xf8	-8
73	0x0e	14
74	0xf4	-12
75	0xed	-19
76	0xf1	-15
77	0x05	5
78	0xe1	-31
79	0xfd	-3
80	0xfd	-3
81	0x0f	15
82	0x00	0
83	0x0b	11
84	0x2b	43
85	0x1a	26
86	0x0a	10
87	0x65	101
88	0x04	4
89	0x36	54
90	0x05	5
91	0x56	86
92	0xf7	-9
93	0x06	6
94	0xe2	-30
95	0xf8	-8
96	0x00	0
97	0x15	21
98	0x0a	10
99	0xe7	-25
100	0xeb	-21
101	0xfb	-5
102	0xfa	-6
103	0x26	38
104	0xf4	-12
105	0x06	6
106	0x02	2
107	0xe2	-30
108	0xf2	-14
109	0xfa	-6
110	0xe7	-25
111	0xf8	-8
112	0x07	7
113	0xff	-1
114	0xff	-1
115	0xd1	-47
116	0xd7	-41
117	0xe9	-23
118	0x06	6
119	0x0c	12
120	0xf4	-12
121	0xd8	-40
122	0x07	7
123	0xe7	-25
124	0x01	1
125	0xfa	-6
126	0xe7	-25
127	0xfd	-3
128	0xff	-1
129	0xfd	-3
130	0x00	0
131	0xe4	-28
132	0x12	18
133	0xeb	-21
134	0x02	2
135	0xf2	-14
136	0xfa	-6
137	0x0d	13
138	0xfd	-3
139	0xfc	-4
140	0xfe	-2
141	0x00	0
142	0xe0	-32
143	0xf8	-8
144	0x0f	15
145	0x35	53
146	0x40	64
147	0x53	83
148	0x08	8
149	0xff	-1
150	0x11	17
151	0x7f	127
152	0xe5	-27
153	0xf9	-7
154	0x07	7
155	0xe2	-30
156	0xf8	-8
157	0xff	-1
158	0xf1	-15
159	0x07	7
160	0x0a	10
161	0xcd	-51
162	0x0d	13
163	0x05	5
164	0x18	24
165	0xc8	-56
166	0x00	0
167	0x00	0
168	0xff	-1
169	0xa6	-90
170	0xfd	-3
171	0xff	-1
172	0xf0	-16
173	0xec	-20
174	0x03	3
175	0x05	5
176	0x03	3
177	0x5d	93
178	0x2a	42
179	0x52	82
180	0x26	38
181	0x54	84
182	0x05	5
183	0x2e	46
184	0xfc	-4
185	0x97	-105
186	0xfd	-3
187	0xb9	-71
188	0x27	39
189	0xd5	-43
190	0x5a	90
191	0x03	3
192	0x08	8
193	0x21	33
194	0xe5	-27
195	0x39	57
196	0xca	-54
197	0x21	33
198	0xf4	-12
199	0x28	40
200	0xf4	-12
201	0xe7	-25
202	0x0e	14
203	0xf0	-16
204	0xfb	-5
205	0xf4	-12
206	0x02	2
207	0xe7	-25
208	0xec	-20
209	0xde	-34
210	0xc8	-56
211	0xec	-20
212	0x2d	45
213	0xf1	-15
214	0xfa	-6
215	0xe2	-30
216	0x20	32
217	0xf4	-12
218	0x13	19
219	0xb6	-74
220	0x11	17
221	0x0d	13
222	0xbc	-68
223	0xf5	-11
224	0xfd	-3
225	0xea	-22
226	0x0c	12
227	0x3a	58
228	0xf9	-7
229	0x00	0
230	0x09	9
231	0x3e	62
232	0xe5	-27
233	0xd2	-46
234	0x1f	31
235	0x24	36
236	0x06	6
237	0xde	-34
238	0x68	104
239	0x09	9
240	0xe2	-30
241	0xfb	-5
242	0xe3	-29
243	0xee	-18
244	0x10	16
245	0xd8	-40
246	0x09	9
247	0xc8	-56
248	0xfe	-2
249	0xdd	-35
250	0x0e	14
251	0xe5	-27
252	0x0e	14
253	0xf3	-13
254	0x03	3
255	0x0b	11

sequential_2/conv2d_7/Conv2D i1 [16, 3, 3, 8]
0	0x02	2
1	0x06	6
2	0xfe	-2
3	0x31	49
4	0x41	65
5	0x21	33
6	0x2d	45
7	0x00	0
8	0x03	3
9	0xfa	-6
10	0xfa	-6
11	0x1e	30
12	0x11	17
13	0x96	-106
14	0xf5	-11
15	0xfa	-6
16	0x02	2
17	0x05	5
18	0xff	-1
19	0x17	23
20	0x07	7
21	0x90	-112
22	0xd7	-41
23	0xf6	-10
24	0x00	0
25	0x00	0
26	0x07	7
27	0x7f	127
28	0x71	113
29	0x58	88
30	0x50	80
31	0xfc	-4
32	0xfd	-3
33	0x14	20
34	0x03	3
35	0x78	120
36	0x37	55
37	0x26	38
38	0x60	96
39	0xff	-1
40	0x01	1
41	0xfe	-2
42	0x0f	15
43	0x1c	28
44	0x30	48
45	0xe4	-28
46	0xca	-54
47	0x08	8
48	0xf9	-7
49	0xf8	-8
50	0xfb	-5
51	0xfd	-3
52	0x18	24
53	0xc4	-60
54	0x02	2
55	0x06	6
56	0xfe	-2
57	0xf5	-11
58	0xf5	-11
59	0xe7	-25
60	0x15	21
61	0xa0	-96
62	0x0f	15
63	0x05	5
64	0xfb	-5
65	0x09	9
66	0xe8	-24
67	0xe7	-25
68	0x1b	27
69	0xd2	-46
70	0xc0	-64
71	0xf8	-8
72	0xb8	-72
73	0x19	25
74	0xe4	-28
75	0x04	4
76	0x01	1
77	0x09	9
78	0xf9	-7
79	0xb7	-73
80	0x2a	42
81	0x1e	30
82	0xd1	-47
83	0xf9	-7
84	0xf9	-7
85	0xfd	-3
86	0xea	-22
87	0xc4	-60
88	0xda	-38
89	0xf0	-16
90	0x0b	11
91	0xf4	-12
92	0xfe	-2
93	0x0a	10
94	0x04	4
95	0xcc	-52
96	0x2f	47
97	0x55	85
98	0x2c	44
99	0x02	2
100	0x05	5
101	0xfa	-6
102	0xfd	-3
103	0xe4	-28
104	0x7f	127
105	0x7e	126
106	0x49	73
107	0x07	7
108	0x00	0
109	0x00	0
110	0xf6	-10
111	0x24	36
112	0x10	16
113	0x37	55
114	0x07	7
115	0xfe	-2
116	0xfb	-5
117	0xfd	-3
118	0xfb	-5
119	0xaf	-81
120	0xc0	-64
121	0x21	33
122	0x31	49
123	0x00	0
124	0xfc	-4
125	0x03	3
126	0xfa	-6
127	0xc9	-55
128	0x03	3
129	0x26	38
130	0x42	66
131	0xfb	-5
132	0xe9	-23
133	0x01	1
134	0xf5	-11
135	0xcb	-53
136	0xe7	-25
137	0xea	-22
138	0xf1	-15
139	0xfe	-2
140	0x04	4
141	0x05	5
142	0xf8	-8
143	0xa7	-89
144	0xe7	-25
145	0x35	53
146	0x07	7
147	0x0f	15
148	0xe8	-24
149	0xf7	-9
150	0xef	-17
151	0x11	17
152	0x40	64
153	0xd0	-48
154	0xa1	-95
155	0xe7	-25
156	0xab	-85
157	0x0a	10
158	0x0e	14
159	0xfa	-6
160	0xed	-19
161	0x0e	14
162	0xf8	-8
163	0x19	25
164	0x1e	30
165	0xe8	-24
166	0xe1	-31
167	0x1b	27
168	0x2b	43
169	0xba	-70
170	0xdd	-35
171	0xff	-1
172	0xff	-1
173	0x05	5
174	0xed	-19
175	0xc2	-62
176	0xe0	-32
177	0x35	53
178	0x1a	26
179	0xee	-18
180	0xcb	-53
181	0x0d	13
182	0xfe	-2
183	0x81	-127
184	0x08	8
185	0x2f	47
186	0x27	39
187	0x06	6
188	0xfc	-4
189	0x29	41
190	0xd3	-45
191	0x06	6
192	0x4b	75
193	0x99	-103
194	0xe7	-25
195	0x0f	15
196	0x06	6
197	0xf3	-13
198	0x14	20
199	0x7f	127
200	0xe4	-28
201	0x35	53
202	0x05	5
203	0x0a	10
204	0x2a	42
205	0xf8	-8
206	0xd0	-48
207	0x02	2
208	0xf9	-7
209	0xae	-82
210	0xf5	-11
211	0x05	5
212	0x24	36
213	0xe2	-30
214	0x05	5
215	0xc9	-55
216	0xd8	-40
217	0xfb	-5
218	0xd8	-40
219	0x98	-104
220	0xdf	-33
221	0xcb	-53
222	0x23	35
223	0xc1	-63
224	0x2d	45
225	0xf7	-9
226	0xfc	-4
227	0x26	38
228	0x0c	12
229	0x03	3
230	0x13	19
231	0x98	-104
232	0xfb	-5
233	0xf4	-12
234	0xba	-70
235	0xf8	-8
236	0xe8	-24
237	0xd9	-39
238	0xfc	-4
239	0xb6	-74
240	0xce	-50
241	0x35	53
242	0x6d	109
243	0xbb	-69
244	0x24	36
245	0x30	48
246	0x11	17
247	0xc2	-62
248	0xe3	-29
249	0xfb	-5
250	0xed	-19
251	0xff	-1
252	0x57	87
253	0xe8	-24
254	0x5b	91
255	0xf5	-11

sequential_2/conv2d_6/Conv2D i1 [8, 3, 3, 2]
0	0x01	1
1	0xf1	-15
2	0xff	-1
3	0xfa	-6
4	0xfd	-3
5	0xe3	-29
6	0x01	1
7	0x51	81
8	0xff	-1
9	0x7f	127
10	0x01	1
11	0x08	8
12	0x00	0
13	0x45	69
14	0xfc	-4
15	0x40	64
16	0x02	2
17	0x09	9
18	0x00	0
19	0xd1	-47
20	0xfd	-3
21	0xe5	-27
22	0x03	3
23	0xf7	-9
24	0x06	6
25	0x11	17
26	0xfe	-2
27	0xc6	-58
28	0x03	3
29	0x7f	127
30	0xfb	-5
31	0xbd	-67
32	0x00	0
33	0xcb	-53
34	0xfd	-3
35	0x16	22
36	0xfa	-6
37	0xa7	-89
38	0xff	-1
39	0x7f	127
40	0xfe	-2
41	0x38	56
42	0xfd	-3
43	0xdb	-37
44	0x06	6
45	0x2c	44
46	0x00	0
47	0xfd	-3
48	0xff	-1
49	0xbb	-69
50	0xf9	-7
51	0xfe	-2
52	0x00	0
53	0xef	-17
54	0xed	-19
55	0xfb	-5
56	0x08	8
57	0x02	2
58	0xe7	-25
59	0x02	2
60	0x49	73
61	0x02	2
62	0x7f	127
63	0xfd	-3
64	0x0a	10
65	0xff	-1
66	0xe6	-26
67	0xfd	-3
68	0x15	21
69	0xfe	-2
70	0xf7	-9
71	0x03	3
72	0x81	-127
73	0xfe	-2
74	0xab	-85
75	0xfe	-2
76	0x34	52
77	0xfb	-5
78	0xd2	-46
79	0xfe	-2
80	0x02	2
81	0xfb	-5
82	0x3d	61
83	0x07	7
84	0xe1	-31
85	0x00	0
86	0x75	117
87	0x01	1
88	0x4f	79
89	0x02	2
90	0x67	103
91	0xff	-1
92	0x7f	127
93	0xf7	-9
94	0x48	72
95	0x03	3
96	0x50	80
97	0x00	0
98	0x49	73
99	0xf7	-9
100	0x70	112
101	0x00	0
102	0x67	103
103	0x02	2
104	0x65	101
105	0x03	3
106	0x77	119
107	0xfc	-4
108	0x7f	127
109	0xfd	-3
110	0x13	19
111	0x00	0
112	0xac	-84
113	0xfd	-3
114	0x29	41
115	0xfd	-3
116	0xb8	-72
117	0x02	2
118	0xd6	-42
119	0x01	1
120	0xff	-1
121	0x00	0
122	0xd5	-43
123	0xff	-1
124	0xfd	-3
125	0x03	3
126	0x03	3
127	0x3a	58
128	0x01	1
129	0x66	102
130	0x09	9
131	0x70	112
132	0xfb	-5
133	0x23	35
134	0xfb	-5
135	0x3f	63
136	0xfe	-2
137	0x7f	127
138	0x07	7
139	0x36	54
140	0x01	1
141	0x3f	63
142	0xfc	-4
143	0x5c	92
